trained_rbm/rbm.hid--pen.bias_h.npy (npy, 4128 bytes, 1 tensors)

array f8 [500]
000000 f1 0f 3b b4 7d c5 b8 bf e3 c6 a0 d3 4c 21 ba bf
       -0.0967634739891421 -0.10207061926555698
000010 28 e0 fc ed 33 69 a9 3f b5 d2 58 87 0b 05 ab 3f
       0.04963075904964881 0.05277286555466302
000020 e8 49 18 3f 06 4d a4 3f 96 48 e0 b2 ad 64 9d bf
       0.03965014953805107 -0.02870437053940885
000030 51 da 4c 5e f9 41 ba bf 9d 3b e7 55 fc 2a bc bf
       -0.10256918480158929 -0.11003090951201817
000040 34 23 ff 5a 69 9b a1 3f 3f e8 be f2 d1 ce b4 bf
       0.03438882098959653 -0.08128082443627792
000050 d1 41 52 08 15 28 bc bf 26 07 27 dc c8 04 b4 bf
       -0.10998660519749782 -0.07819800734344237
000060 92 3e 19 a9 b7 f3 73 3f 8c ab 50 b2 e9 7e b6 bf
       0.00487109892271999 -0.08787403682133127
000070 54 9a a3 cf 7f 6a b6 bf ff fa 4d 1f 7a ef ac 3f
       -0.08756254977525063 0.05651456482063643
000080 8b fa d3 b0 1d 64 b5 3f dc f5 43 ef 13 bb b5 3f
       0.08355889861193526 0.08488583175127168
000090 c6 79 d8 ed c5 8e b7 bf ac 18 81 ec 8a 74 a7 bf
       -0.09202229553964178 -0.04581102501883669
0000a0 e5 40 fd 36 19 56 b6 bf 94 c8 8f 28 32 4e b3 bf
       -0.08725125877868185 -0.07541192522310985
0000b0 9d df 43 30 d7 56 8c bf a6 34 af c8 92 a6 91 3f
       -0.013837510261950398 0.01723698949699739
0000c0 5a eb 7c 89 0f fb 8e 3f 34 df 8c 1f 25 53 92 3f
       0.015127297766971349 0.017895298052479094
0000d0 9d f9 a0 3c 43 aa a9 bf dc 88 1e d3 54 86 97 bf
       -0.050127125884034764 -0.022973370919893252
0000e0 50 f1 7f 69 8e 28 b4 bf 08 e6 ca 12 4b 44 b3 bf
       -0.07874383998563883 -0.0752608223800949
0000f0 23 f3 16 32 7a dd ad bf 3c 0b e5 0c 3f 4b 70 bf
       -0.05833036290593998 -0.003978010454661892
000100 69 68 07 e8 49 1d bb bf 55 7c 83 92 bb dc ad bf
       -0.10591566004532783 -0.05832468188759125
000110 ee e2 8e 60 34 5c b6 bf 6e 4a c7 33 7c f6 a7 bf
       -0.08734443051697457 -0.046802407570471924
000120 6c b1 4f d6 5d 40 c0 bf 1e 87 88 c7 e9 0c c1 3f
       -0.12696431126040453 0.13320657961690413
000130 d0 8b 12 3f f6 30 b0 bf 4f 88 f8 29 30 38 b4 bf
       -0.06324709930281291 -0.07898236298254456
000140 27 27 c1 4b 75 d9 b5 bf 39 ec 96 99 e1 72 a9 bf
       -0.08534939860797107 -0.04970459937927569
000150 aa 99 34 01 b8 47 b1 3f 5f 78 f1 be 97 62 a1 bf
       0.06750059155874646 -0.03395532804346212
000160 72 fa 93 88 cd 8d 9c 3f d5 c9 28 b9 8f 9b bb 3f
       0.02788468500238612 0.1078424288796563
000170 c5 76 c4 49 02 02 86 3f e6 7f 69 98 73 46 9f 3f
       0.010746019245341807 0.030542188813683334
000180 c0 3d 25 1e 4c e1 b6 3f d1 ad ec 4f d4 9f a5 bf
       0.08937526451085542 -0.0422350261272545
000190 95 d8 17 91 b2 d4 c0 3f da a4 04 17 67 c7 96 3f
       0.13149101338030236 0.022245035915294455
0001a0 34 f6 bb 30 b7 e0 76 bf 14 bd 4f 1a 93 da 96 bf
       -0.005585399234175937 -0.022318171006131385
0001b0 a4 6f 20 15 12 ac 9f 3f a0 67 92 32 36 d9 91 bf
       0.030929834880324983 -0.017430159413016733
0001c0 03 1d f7 38 73 3f ad bf 88 fd c3 58 5c b6 63 bf
       -0.05712471075417549 -0.002406292309501349
0001d0 72 a0 10 d2 61 1b ba bf d7 33 3f 81 d1 2d a4 bf
       -0.10198031786478781 -0.03941206648560296
0001e0 e6 02 2b d1 b8 1b a7 3f e2 66 78 a5 07 a7 be bf
       0.04513337663002463 -0.11973617353251201
0001f0 38 2e eb 26 d0 9a 93 bf 18 dd fa 70 45 21 b4 bf
       -0.01914525258579955 -0.07863267906474325
000200 c1 09 ed 78 cd d4 b8 bf d1 a2 0a b3 c7 06 b4 bf
       -0.09699711038869109 -0.0782284557450439
000210 38 c0 88 3c dc cf 93 3f 7d c5 45 8b f5 09 8c bf
       0.01934761161300022 -0.013690870583306087
000220 7b 08 88 c7 b4 f7 a6 3f f5 45 cc 65 4c 0a b6 bf
       0.04485859809575828 -0.0860946415453084
000230 bb 02 f8 23 2e 00 b0 3f d2 83 ea 06 f3 79 7d 3f
       0.06250275018829658 0.007196378063469804
000240 f9 8d 41 f1 d0 ad 81 bf ca a2 a5 74 16 08 a4 3f
       -0.008632309305716556 0.039124204386842346
000250 84 a3 db 8b 46 2f c4 3f ea 44 7d 9e 38 db a3 bf
       0.15769273594858302 -0.038781899782984144
000260 25 41 f7 a3 bf 1a ad 3f 96 5d 35 d9 0c 3d b7 bf
       0.05684470058952432 -0.09077530196133518
000270 c8 ea e2 e1 4d 29 ba bf 06 83 23 a0 55 aa b6 bf
       -0.10219275250248494 -0.0885365978206317
000280 b2 e7 a5 4f aa a9 b7 3f 95 d5 5a 4b 6e b8 ac 3f
       0.09243263668568494 0.05609459562166844
000290 7c fd 8d ac 56 f4 94 3f 19 dd ee 97 f5 db b2 3f
       0.020463327676677676 0.0736688133173299
0002a0 f4 f4 a9 c6 89 dc b6 bf 69 cb b8 91 9d b1 91 3f
       -0.08930264568512652 0.017279111880451312
0002b0 7e e9 1b e0 7a 5e 9a 3f bf 13 43 27 6a 1c bb 3f
       0.025751037529496916 0.10590232332749759
0002c0 6b e2 fc 4e 28 9b a9 3f dc 5e 0f b6 3c fa 99 3f
       0.05001188244063289 0.025368641483367024
0002d0 8d a0 af e3 1f d0 ae bf 0a 1e b5 b0 65 f7 b7 3f
       -0.060181614440638055 0.09361873211047836
0002e0 30 2d 6d 48 65 99 af 3f ba 9a 99 19 7d bb 7b bf
       0.06171719082939331 -0.0067706000059845565
0002f0 3d d1 40 57 50 d9 a6 bf b6 dd 26 78 04 ed b3 bf
       -0.04462672295668078 -0.07783534940141731
000300 87 95 2c 2a 4f ab b3 bf 5b 4c 72 a9 6d 55 b8 bf
       -0.07683272151606078 -0.09505353342892546
000310 2c b0 31 d8 97 e9 7d bf 8f 20 ce f5 8b 5e b1 bf
       -0.007302849905595859 -0.06784891844847805
000320 27 19 3c 20 6c 78 b2 bf e1 3c a3 51 c6 23 b6 3f
       -0.07214999949437538 0.08648337834459909
000330 61 5e ed 5e ba 1c ab bf f3 b3 e7 a0 4a d2 8c bf
       -0.052953552329822136 -0.014072974238809243
000340 b1 af fb 76 a2 60 a5 bf 8c e1 b2 ca 71 4c a7 3f
       -0.04175288870268846 0.0455051002440455
000350 af 97 40 b4 52 94 c7 3f 1a 70 ac ef 57 8c b3 3f
       0.18421396066076798 0.07636022187620065
000360 90 95 4a 2d 8a f2 ad bf 4a 5c a4 81 bb 17 a3 bf
       -0.058491056469658465 -0.03729043920082427
000370 99 2e d9 c9 05 01 b8 bf b4 12 ce 1b 1a 6e 9b bf
       -0.09376560380877165 -0.026787193247872224
000380 cc 36 93 be 80 e0 95 3f 9d 11 73 37 77 d7 a0 bf
       0.021364223129060986 -0.03289387275575282
000390 36 64 07 a0 61 34 bf bf a6 81 7a 6f 34 f4 c4 3f
       -0.12189302594141868 0.16370253985679745
0003a0 01 5e c4 ec 74 18 ac bf 28 65 d4 99 b3 c7 b9 bf
       -0.05487409010146039 -0.10070345407111303
0003b0 dc 75 9a 6e c3 e4 95 3f 22 42 b8 b8 a5 dc a6 bf
       0.021380475640958227 -0.044652155684279174
0003c0 de 14 ce b9 39 8e a1 bf 37 dc 17 2d 2a e3 82 3f
       -0.03428821938636316 0.009222344876418471
0003d0 cb cb b8 c3 4b bc ab 3f b2 3c 75 f3 41 81 b2 3f
       0.054170959131077355 0.07228481477544582
0003e0 d8 1b 11 a1 f8 6b b2 bf 1f f1 6e fe e3 f2 b1 3f
       -0.07196000988288576 0.07011246644737355
0003f0 e2 fa d7 03 c7 51 99 bf 2a 22 be 7f 40 24 7d bf
       -0.024726018533324352 -0.007114650677870796
000400 4d 3c d0 e4 2c 68 b4 bf 04 79 62 09 3a 31 b1 3f
       -0.079714589941646 0.06715738991849568
000410 ae 27 7f dd e2 21 c4 3f c1 c7 6f f1 ac e3 b1 bf
       0.15728412452000157 -0.06988030332993757
000420 c5 0e 74 55 af b5 a4 bf 7c d9 c4 6c 77 76 ad 3f
       -0.04044864576465338 0.057544452693423204
000430 a3 f1 8e fa a2 6d bd bf 20 90 40 7e 67 ff a2 bf
       -0.11495417229793374 -0.03710482994236508
000440 d0 df 99 0e 1b 65 90 3f e0 1b cc 95 ee 20 a7 bf
       0.01601068760507457 -0.0451731260164292
000450 fc 0b 86 64 5f 80 c0 bf 58 0c b8 2a 0c a9 8d bf
       -0.1289176216924658 -0.014482588819197215
000460 70 b1 af d0 28 f3 5a 3f bf ac 99 b0 aa 6e a6 bf
       0.0016448877893210055 -0.04381307035222325
000470 08 63 9e 2e af 34 c9 3f 3e d4 55 b4 f5 d8 a2 3f
       0.1969202973966946 0.03681152178152346
000480 84 54 e1 c6 ac 73 b2 bf 75 a4 93 c4 38 9c ba bf
       -0.07207755904649288 -0.10394625472294357
000490 39 7c 2a 19 0d 0a 8c bf 96 1a c6 d2 e9 cd ba bf
       -0.01369104607630166 -0.10470448871465474
0004a0 86 42 83 1b 18 53 b8 bf 31 53 b2 31 83 7b b7 3f
       -0.09501791640946963 0.09172840083404023
0004b0 aa 20 99 76 49 9b b3 bf 3a e8 5e 2c 44 e2 a4 3f
       -0.07658824105704079 0.04078877488741779
0004c0 36 21 2f 18 95 61 c3 3f a9 ac c1 29 bc b1 a0 3f
       0.15141547852386744 0.032606010529741276
0004d0 fa e8 a5 9d fe 54 b4 bf b2 69 a4 ad d7 b5 ba 3f
       -0.07942191456632833 0.1043371962481732
0004e0 e9 e4 86 84 ea fe bd bf 92 37 20 1d 3d dc 7f 3f
       -0.11717096076508295 0.007778395391154451
0004f0 88 ab 77 12 0c e2 99 3f 1e 3e ba c9 76 78 aa bf
       0.02527636397091329 -0.051700317501964785
000500 b2 5a 51 cb 3d 7e 91 bf 35 88 77 f0 1c 08 ab 3f
       -0.01708313516095456 0.05279627261531098
000510 3c ef fc b4 27 84 b5 3f cd a5 1f 03 f6 57 bb bf
       0.0840477768769547 -0.10681092811832756
000520 65 2b 65 05 ea e1 a3 3f d2 47 f9 17 5c 73 c0 3f
       0.038832963141053146 0.12852049990266196
000530 05 21 33 dd dd 61 95 3f ab 5d b3 f2 24 91 b0 bf
       0.020881144166907912 -0.0647147266894225
000540 cb f4 92 d4 98 a3 c9 3f ee b5 09 e9 4c 1c 9a bf
       0.20030508403389144 -0.025498582576281174
000550 72 a9 1e 73 f2 2f 96 bf f1 68 83 c3 30 d1 a1 3f
       -0.021667278553346 0.03479912172925193
000560 2b 9b ae 63 64 4d b7 bf 83 64 46 19 fc fd a0 3f
       -0.0910246604313271 0.033187749944041854
000570 97 de 7d 30 a4 14 c9 3f 9d d8 7b 83 bc 2f 89 bf
       0.1959424244666834 -0.012298081171575876
000580 51 42 14 6d ca a3 a4 bf c3 5a bd 81 5a 6e b8 bf
       -0.04031212407619889 -0.09543386142227477
000590 f2 24 87 2e ec 91 bb 3f 01 d5 8c da c9 88 bc 3f
       0.10769535194335214 0.11146222673126617
0005a0 1c 7d de 61 0e d6 a2 bf 20 dd e5 b0 9f 57 b1 3f
       -0.036789369055663296 0.06774328297420995
0005b0 7a f0 7d c4 41 6d b2 bf 08 a3 ed be eb 87 64 bf
       -0.07197962805907024 -0.002506218377153483
0005c0 0f 53 d1 59 dd 91 a8 bf c6 45 36 dc 39 36 96 3f
       -0.04798785897643231 0.02169123083655735
0005d0 9a a4 01 6d f2 fe ba 3f 3b 41 91 0b 86 ab ba bf
       0.10545268212594508 -0.10417974264533296
0005e0 ec de 20 7b 2d 66 a1 bf e9 e3 7c 51 9c ad b7 bf
       -0.033982678680727435 -0.09249283780526664
0005f0 1e 46 0f d8 4f 56 92 3f 5e 1d 2c 2e 63 2c a5 bf
       0.017907378732905703 -0.041354274164457236
000600 3c 86 04 f6 65 53 b5 bf dc 9b fc 00 89 99 95 3f
       -0.08330380684176303 0.02109350269816078
000610 ef 63 ec 91 f8 d4 ae bf b1 a5 f6 d4 d4 1e a3 3f
       -0.060218589604296706 0.037344599720494094
000620 59 d3 80 b5 15 67 a9 bf 63 dc ae 75 a2 4b bd bf
       -0.04961459961524523 -0.11443534253236147
000630 4d 8e eb 94 2b 9b b4 bf 89 e9 2e 1b 98 fb a7 bf
       -0.08049270997758491 -0.04684138614489359
000640 c9 ea df 10 21 06 a2 bf 1c f7 fe c6 67 33 95 3f
       -0.035203011808297165 0.020703908463239093
000650 a7 e9 31 c1 1a d6 a2 3f ab ed 62 6f 54 50 be 3f
       0.03678973778092436 0.11841323584933743
000660 9b 9d 2d 16 47 59 b1 bf 9b d1 fa 8d ca 59 b2 bf
       -0.0677685193201029 -0.07168260542204623
000670 32 09 9f 6c 02 1c 76 3f 7e 01 ee 6e fa 71 ba 3f
       0.005397805662086962 0.10330167015309219
000680 be 5d e6 7d 1d d5 bc bf 48 ab 55 0e b0 c9 b1 bf
       -0.11262687991835826 -0.06948376035658754
000690 0d ed 88 b1 51 83 b7 bf d3 01 7e 98 7e bf b2 bf
       -0.09184752067897169 -0.07323447440103985
0006a0 7b fb 57 8b 58 2a a8 3f a9 c6 04 c8 4a 1f b4 bf
       0.04719807339642209 -0.07860247977512337
0006b0 65 ae 1f 0b 04 aa 88 bf 5b 56 b2 44 fb bc a7 bf
       -0.012043029393644386 -0.04636368955213462
0006c0 50 a3 74 1d b6 c7 53 bf 76 90 02 f7 62 c8 a6 bf
       -0.0012072828738587012 -0.044497578289594594
0006d0 95 93 0d 5b 6c bf b5 3f 76 7f 3d a1 fd 23 c0 3f
       0.08495213721250956 0.12609835026796262
0006e0 ca 45 26 12 36 04 af bf e4 08 8d e5 09 8b b6 bf
       -0.0605790040164141 -0.08805906156797821
0006f0 1c f5 14 31 a2 42 b6 bf e8 45 9c 42 c8 73 b2 bf
       -0.08695424745834085 -0.07207919718009459
000700 c8 bb 2f 6a a4 cb 9f bf b4 ed fa 04 f3 57 aa 3f
       -0.03105027101622307 0.05145224986832933
000710 ff 95 81 f2 66 39 8f bf 70 4b db bf 84 dc a1 3f
       -0.015246204639150383 0.03488554803848032
000720 20 ed ec d8 b0 23 b6 bf 3d 30 4b be 4a 87 b8 3f
       -0.08648209854157018 0.09581439157335665
000730 30 d2 73 ae 93 c2 66 bf 7c d6 cf 89 7c 79 ba bf
       -0.0027783283618368 -0.10341623653934023
000740 21 55 c8 df f8 74 a5 bf 1e be 79 67 a0 36 b2 3f
       -0.041908051793294605 0.07114603544481965
000750 8d 10 7c 95 b0 5b bd bf 2d 4b de 51 82 0e a0 3f
       -0.11468032502677002 0.03136069535607642
000760 d4 7f 4d ee 3d 0a ca 3f c8 da 9e af cd 21 93 bf
       0.20343755851626943 -0.01868363747027038
000770 cc 84 87 86 19 13 c2 3f 16 4f df d1 50 35 aa 3f
       0.14120787686173342 0.05118801652829867
000780 a8 99 9d f6 1e 40 b5 bf be f1 aa 45 c5 0e b6 bf
       -0.08300965805901817 -0.0861628813826831
000790 17 3e 17 fa 8b e8 aa bf 87 eb 0e a9 e4 60 b3 3f
       -0.05255544116846183 0.07569722297095725
0007a0 84 f0 24 ab 2d 7c a3 bf a4 08 20 47 87 cd 9f bf
       -0.038056780950200625 -0.03105746623624185
0007b0 b9 0d ef cf 64 13 b2 bf 89 4f 7d b1 33 70 85 3f
       -0.07060842587002626 0.01046791444210961
0007c0 6e e3 d5 2e de 88 a8 bf 09 31 3c 8e 85 63 b7 bf
       -0.047919219224190054 -0.09136233065163792
0007d0 2f 6d 45 a4 fd a2 ba bf 0b b0 8d db 3c 63 81 3f
       -0.10404954205062177 0.008490062189331146
0007e0 2a e6 dd 55 08 32 b8 3f 8e 90 e5 f5 d0 11 b8 bf
       0.09451343628270395 -0.09402185443247132
0007f0 ce ed d9 5b 96 56 aa bf 2b 56 98 43 25 5b ba bf
       -0.05144185897094254 -0.10295327091474664
