trained_rbm/rbm.vis--hid.bias_h.npy (npy, 4128 bytes, 1 tensors)

array f8 [500]
00000000: dc08 d6c4 81d4 d33f 5a38 bc66 5dd5 af3f
00000010: 4edd d0f8 3b96 b23f 1647 7aa4 2df2 98bf
00000020: b45c 12e9 9001 b5bf f576 c6e7 0e23 d13f
00000030: 7eba 5ff6 b84f a33f b0f9 370f f25c b3bf
00000040: 2629 fbd6 69ec bf3f c0b3 c216 7729 bd3f
00000050: 9d89 2b87 a463 c63f a9cd 0e6f 2114 adbf
00000060: 9e27 4e4d e266 7fbf eef9 cad4 afdd 8dbf
00000070: db71 0ef0 4b8d cb3f a03d e1ee db8b c03f
00000080: 3d2e f79b fa02 a63f 734e e631 adbc c83f
00000090: 6e5f cadf 4454 c23f 0d7b a564 49cc 8ebf
000000a0: b7b1 4c35 e2a7 c53f 370f a1ee d6a7 ca3f
000000b0: 3f85 c37a e358 bf3f 1dda 847f d5a7 833f
000000c0: 4d7d 464d dbdb bf3f e8ea 8951 fb15 943f
000000d0: 593c e0c7 286f c33f 0596 c401 c402 b2bf
000000e0: 2ac4 c0b9 7194 c53f 126e 484f 28bb bc3f
000000f0: e8f6 ecce 86e5 6ebf a98b 9d83 ce0e c43f
00000100: 0960 1114 b037 cb3f fc80 2dac 8049 a93f
00000110: eeae eb3a 23d6 ac3f 7112 4952 6ee0 81bf
00000120: 35fd 541a e7b7 c43f 8b83 6056 0bf1 b6bf
00000130: 58c4 2b38 2195 b13f e0b7 173f 6b11 923f
00000140: 0169 8fa0 8cc2 acbf 61c6 1190 2ee1 a5bf
00000150: dee5 8fb6 d8df b13f 77e7 0af9 594a 80bf
00000160: 39d3 a4ab c759 8d3f e40e ac13 bc5e 94bf
00000170: 826a eb37 464c a0bf 998d 261a 0620 c13f
00000180: bc9a fd06 313a b9bf 520a 9da9 1dac b4bf
00000190: b2ab 8106 3f40 b13f ee4b f7f3 09d1 c13f
000001a0: 0b0f 865f 3e73 b83f 9e07 372e 59a4 b0bf
000001b0: 5703 ae96 1920 b13f bda7 4a00 8e7d 923f
000001c0: 51bf 2ed3 36b8 be3f 1a06 2a31 401c c73f
000001d0: 1506 ca2d dfd4 be3f a245 3d0b b9ea b73f
000001e0: d8d1 e172 ce9a cd3f 25cd 61f9 03a9 be3f
000001f0: ee6a cc86 4332 d03f 020a efcd f381 ab3f
00000200: 851d 9678 c861 c13f e4f1 e2cb 3899 a4bf
00000210: 18f5 bad2 bbd3 92bf 1d9a 1a21 2ed2 b8bf
00000220: 1ac4 3408 c1bc c23f 20e6 a93f ed1b ce3f
00000230: 553e bec9 198b abbf ad5a c8a4 8ad5 85bf
00000240: 5f8e f640 87fd bd3f 72ca 4bff 1f08 aabf
00000250: 316c 8072 f13a b5bf 5140 83f7 7b6e 9f3f
00000260: 7a14 00be 3e69 923f c183 cd10 4c02 a43f
00000270: 8f0c d51a ca3d d23f 5271 fe8a e9d6 a33f
00000280: 3e45 955a 90ba b53f 7a90 87de 89dd d13f
00000290: 5e9a ee93 b885 b0bf 682e dd70 891f b8bf
000002a0: 9ebd 9496 f1e7 9bbf 5de6 9a29 3e9e be3f
000002b0: 45cf fb80 a54b be3f c76c 10ea a24d a83f
000002c0: 8a7d 9fd2 ed7f b03f 82b5 2e01 1a28 b63f
000002d0: b6c0 b3ab 2a52 9a3f 77df 5be6 5cd1 c63f
000002e0: 656c b8df 0ba6 c53f 1e7d 60f5 5fa8 bb3f
000002f0: 6c92 4b7f 3872 c63f f8b1 b795 017a b43f
00000300: 31b1 2c8e 5cf7 87bf 1fe5 57f9 f9a5 c63f
00000310: fff4 42c4 dad4 c53f f22f 2d93 e091 723f
00000320: e2e4 a5df 7a10 9bbf 5dae 2653 1f77 a0bf
00000330: 84a1 165c 56f1 743f a3d4 3136 79c0 b93f
00000340: 9a24 047f edcc c03f e23e eab1 c20a a93f
00000350: 10c5 3d04 6848 5d3f 3ec4 f80a 3905 c63f
00000360: 2a21 7750 4dfa bebf 6346 77c6 e754 a2bf
00000370: e5b6 5cfa 032d 8abf 4921 5066 e3d4 a73f
00000380: 60c8 5a2c a0a5 a13f ef25 b502 843d c83f
00000390: e4b3 5d37 3642 cc3f 9b96 11ee 8e69 993f
000003a0: 1a02 bddf a753 a4bf c713 8f39 8680 8d3f
000003b0: 295a dc1b e00b a23f 6d6b 3d33 73a2 a83f
000003c0: 9ffc 1593 2bf5 c83f a64e 758c 9aec c13f
000003d0: f5e1 d1f3 b23e 89bf 4d7d a44c 4a37 853f
000003e0: 7412 3715 d1cc a9bf 4d52 bece e87d b23f
000003f0: 25b4 f587 87cb a83f 0afe 8c91 4a42 d23f
00000400: d527 08a8 35dc d03f bfa6 2000 ea55 b3bf
00000410: ae5b 3ebf f5cf c33f 28bb 05ab 0653 b8bf
00000420: 3e86 6eb4 1aa7 a03f 49a7 ce55 168b a93f
00000430: 0380 b5f2 cb84 a33f 3b53 248d 77e0 c83f
00000440: 415e 769c 2502 ca3f 864a ee90 6fff ca3f
00000450: 7074 7a8b aa0e be3f ca99 2bcc 3eed 94bf
00000460: 86f4 150f 2c42 b33f f302 c856 2baf b53f
00000470: 6794 37d1 a6e6 b3bf acc7 4746 e2c4 c63f
00000480: bed6 889f 478e b8bf bcd7 cb6e 5eb5 b43f
00000490: 7419 da49 4c80 c63f 5dfc 3e6c 414d c03f
000004a0: b95c d3de 997e bf3f 3245 5aa9 fe4b bb3f
000004b0: 590e c91a eee0 94bf fbfd a994 a6e2 87bf
000004c0: c234 bd75 c6ce b03f 7f1c 8f31 0355 bb3f
000004d0: fd89 3932 7619 c23f 5080 be98 9f2b 9a3f
000004e0: b593 2ebc 8de3 b5bf ab38 221d beee c23f
000004f0: 35f4 e3fa b0a5 a93f 1421 1ea5 e3e6 c83f
00000500: 2a9d 57af 5796 7e3f 4fbe 9cda 477d a0bf
00000510: fcc6 3ac8 ff81 b23f b37f 4a58 d870 adbf
00000520: 7225 cb12 85cf c53f d7c5 3acd 99d0 ca3f
00000530: ce07 8b91 4c35 a1bf 3346 6a6a ceae b7bf
00000540: 8689 2cde e9c1 a5bf a32d 9dda 9480 963f
00000550: 40b2 1339 7a09 ca3f eba1 53cb f81e b43f
00000560: b18e f8c8 c11a 83bf b44b efba f8f3 a0bf
00000570: 14c5 259b cafe bf3f 224f 738f 9424 b43f
00000580: a8fb 9ce0 208b ba3f f46c 3e3c fe34 b63f
00000590: 1917 41a3 4eee a5bf 7578 cd45 6483 adbf
000005a0: 99fd 7a0c 2666 b13f 6963 a851 2f70 bc3f
000005b0: a0d6 c5f5 8617 bbbf 6b9c d7b5 fece b83f
000005c0: da69 f080 ad05 983f cfd6 5186 89eb 8dbf
000005d0: a676 7484 4fb3 a1bf 95d3 f116 6173 a8bf
000005e0: 8d6b 2b80 c3b5 d43f 05ef 244c 3fa4 ba3f
000005f0: 976b 723f 269b c63f 073d e5c4 2499 8abf
00000600: f755 22ba c103 bb3f ff2a 87e5 cbf1 ab3f
00000610: 07f2 cc0f 6bf7 c13f df1c 7192 13fd af3f
00000620: 682f a46d 5022 c03f b65a f53d 552b d33f
00000630: e0fc dc0c 94c4 c93f a18a d644 340e c2bf
00000640: e6d7 ed97 8e7c 94bf 2f7f 0eb0 3cfe be3f
00000650: af34 1c08 d855 a6bf bc42 905a 26c0 813f
00000660: 5803 6dc5 ad38 b63f de5f 7565 e1b1 c93f
00000670: 5d6d d546 ca24 a2bf 0dbf b493 58e7 b43f
00000680: fae0 1622 0ae7 aa3f 8df0 6cc7 027c c23f
00000690: 7f5d f498 7046 ba3f 97f5 f8d8 47bb b3bf
000006a0: 57d0 e093 4336 bf3f fe0c a02a aee7 9f3f
000006b0: b45e ad9a ae24 a1bf 78a7 8d03 b1e2 7ebf
000006c0: 5c55 3d78 8d02 c23f f2c5 0067 5dab 73bf
000006d0: caec 238d d28b 96bf 6d69 c967 4dd0 983f
000006e0: 89e3 4685 236c c0bf 1c46 daf9 3e02 c33f
000006f0: c0eb f28f 7cd1 98bf a855 8e17 182d 953f
00000700: 7bd8 14d0 c1e2 ae3f 7640 9b88 b8f8 b93f
00000710: 44a8 1b60 3d3c b43f 54fb 8b3b 87de a53f
00000720: 9f6a b1c5 6915 bebf 2bd3 478b d449 a53f
00000730: 061b 67f6 cf3a b0bf adcc 1926 98e7 b6bf
00000740: 9aff 579a a6c9 c03f 3c71 28e4 4b44 cb3f
00000750: 7f76 7b19 2fe3 bb3f 8618 7194 47e4 9f3f
00000760: f44d 8def aeba b53f f0f6 0e60 926e b1bf
00000770: c763 3b90 3cd8 ad3f 764d ed31 4122 94bf
00000780: b7bf a29a e09f b03f 7123 bcd7 0d47 b13f
00000790: 2154 8e3b 3b8f d23f 318a a0b6 b931 8d3f
000007a0: 1a32 0a31 cde5 b23f 2ec5 821d 3bb0 c3bf
000007b0: 3ec7 c945 eb2a 9d3f 8115 bda8 347e aebf
000007c0: a04c aa4a 1f17 c33f cd20 7dcd 29df cd3f
000007d0: 2aec 7a07 8c91 943f 2316 004c 810c b13f
000007e0: 4600 9cb3 1f36 a83f a8bd 38bf 2871 6a3f
000007f0: ee7b ade3 aac8 af3f 8596 7ed1 14f8 bd3f
0.3098453924395821 0.062174719611093734 0.0726048929653775 -0.02436133686439409 -0.08205514612415038 0.26776478418638244 0.03771760947698953 -0.07563698646115458
0.12470113276063852 0.1139139586036455 0.17491585350132946 -0.056794209296096305 -0.007666477195820946 -0.014582990342543813 0.2152495309973251 0.1292681614308835
0.04299147752643904 0.19325795113092034 0.14319668700477045 -0.015038083442673345 0.16918590166586764 0.20824705745519065 0.12245008227502739 0.009597461656636825
0.12444849621396266 0.019615103580217147 0.15182981261793563 -0.07035470050012556 0.16859265871019719 0.11223079619997403 -0.0037715561842607166 0.15670186449559978
0.21263695697666687 0.04938890554217498 0.0563212403702361 -0.008728849302437088 0.16186226640454895 -0.08961554392636921 0.06868178960191196 0.017644572950238913
-0.056171793555863665 -0.042733626448250524 0.06982187707026052 -0.007954314148594694 0.014331397939352552 -0.01989263410634025 -0.03183192665683966 0.13378978993305848
-0.09854418202085474 -0.0807512797446546 0.06738656910753951 0.13919186031725367 0.09550847847100045 -0.06500775697989389 0.06689605644897988 0.018057078140067285
0.11999838500810013 0.18054964447587524 0.12043566577815341 0.09342533611677209 0.23128681764104786 0.1197664722292769 0.25306785739819204 0.05372583283271483
0.1357966030884478 -0.04023149002884788 -0.018385824906308107 -0.09695709522439029 0.14638531590165443 0.23522725685670398 -0.05379562938389585 -0.010661204484717269
0.11714978538525987 -0.05084323874861675 -0.08293065114450894 0.030694901449180915 0.017979603144358404 0.03908002572166636 0.2850213300736834 0.03874902555182537
0.0848779889249913 0.27914664012337875 -0.06454042064306395 -0.09423121457546701 -0.027251982513175947 0.11960209384678806 0.11834177397741737 0.04746731860378755
0.0644520415512401 0.0865494015585764 0.025704066018932457 0.1782642483519756 0.16912983344886637 0.10803794613501735 0.17536073890291293 0.07998666672910548
-0.011702273453544439 0.17694019961326377 0.17055830557902849 0.0045336506326059 -0.02643005361594398 -0.03215883150127461 0.005112969725282194 0.10059316228019326
0.13125389768564305 0.04891022130789026 0.001787282541922789 0.17203438792924602 -0.12100680555807189 -0.035804026581570246 -0.012781172826716378 0.04654608367860875
0.03446674863279564 0.1893773091526749 0.22077062323970076 0.024816735535202566 -0.039700742780500245 0.014405296927984325 0.03524685230347686 0.04811439514624891
0.19498200113227868 0.14003307207405163 -0.012326620164672323 0.01035936399836026 -0.05039075263951967 0.07223372504660937 0.04842780623116764 0.285296098842054
0.2634405270515548 -0.07552969458688617 0.15478393400254958 -0.0950168769393086 0.03252490475211943 0.04988927648021375 0.03812253320461425 0.19435018912977306
0.20319051875843466 0.2109202821416895 0.11741128831131831 -0.02043626900822363 0.07522845619492288 0.08470412129100761 -0.07773821456756168 0.1778834193387956
-0.09592101712118059 0.08089246945368606 0.17579034429600038 0.12735765252543532 0.12302552881316133 0.10662833818993958 -0.02038929022297817 -0.011662770664087488
0.06565513967980777 0.10676593742310735 0.14140202953701922 0.02555703515793112 -0.08550344318662335 0.14791084692519027 0.05009224951388839 0.19454618036639515
0.0074675965492823435 -0.03220581573111458 0.07229612959306658 -0.057501564767562206 0.17039550225880934 0.2094909908387723 -0.033609764830103125 -0.0925110826304028
-0.0424950679501022 0.02197487434686497 0.2034142283149709 0.07859759296446327 -0.009328378625532126 -0.03311135560911485 0.12498155868322086 0.07868317129333183
0.10368543132515973 0.08674611063763732 -0.042833764484880806 -0.05764306404192691 0.0679649143667035 0.11108680480573487 -0.10582774639427805 0.09690849246509152
0.023459158892458955 -0.014609407817470025 -0.034571156424346314 -0.04775527386747239 0.32359397427142583 0.10406871422759074 0.1766097841071683 -0.012987410792133959
0.1055260734013571 0.05457913567405192 0.1403631045485698 0.06247769510860634 0.12604718545514548 0.29951983500124457 0.20131159427726342 -0.14105847703202293
-0.02000639726926314 0.12106684969193958 -0.04362368678094108 0.008667277945307965 0.08680234975782974 0.20074098066356688 -0.035436936518375296 0.08165505987267015
0.05254394212846765 0.14440951097083535 0.10263732656709655 -0.07707642600231278 0.12192175255114655 0.03115722785152019 -0.03348298681401954 -0.0075404085735984935
0.140702899656996 -0.004802098133994447 -0.02201775537922116 0.024232110461846746 -0.12830013282453148 0.14850604247890054 -0.02423662785143299 0.02067983287596112
0.06032376923614976 0.1014514287483069 0.07904418560397725 0.04271338083162016 -0.11751423908701007 0.04157890510751935 -0.0633974052972058 -0.08947134905047234
0.1311538938170969 0.21302174225355397 0.10893530246854687 0.031144255099456085 0.08487981174885545 -0.06809344144036422 0.05829037914890694 -0.019661921188640595
0.06493953490530556 0.06749044911351888 0.28999214950573743 0.01425500000556665 0.07381899306546594 -0.1538156408401305 0.02848403562024448 -0.059556623075461175
0.149143134553559 0.23337290319091722 0.020086467701485734 0.06659706216313359 0.0472879320859652 0.0032277866210034985 0.0620778468062254 0.11706667055713112
